tests/assets/onnx/model.onnx (onnx, 264383 bytes, 40 tensors)

distilbert.embeddings.word_embeddings.weight f4 [30522, 2]
0.0 0.0 0.0003885189 0.0023193832 0.019277424 -0.007219115 0.010891821 -0.0080218045
0.003726177 -0.025789792 0.0064339554 -0.0039460384 0.00371865 -0.021299468 0.0075358986 -0.022495905
0.01901594 0.009023806 0.019499095 -0.0029856733 0.007562368 0.04954069 -0.020577706 0.043905687
0.0047881156 -0.030311808 0.013511894 -0.0055144476 0.011088024 -0.024768133 0.030173233 0.017300066
-0.019208286 -0.0036946042 -0.043233212 -0.02644901 0.025100933 0.026560731 -0.030191034 -0.016087249
-0.022977373 -0.0022856938 -0.014109774 -0.0050646598 0.021920247 0.0037005548 -0.006020515 -0.010128496
0.014141913 0.03121695 0.0070502595 0.0033963013 0.033095516 -0.027411167 -0.00545619 0.016952267
-0.00253549 0.00366822 0.01268109 0.028110852 0.008897446 0.0044888416 0.019260103 -0.021753319
0.0033678722 -0.0037683933 -0.0025431507 -0.007868702 -0.03396178 -0.0174333 0.0006524184 0.018749163
-0.00078571565 0.0019456341 -0.021110516 0.005126294 -0.03267422 -0.017670617 -0.033124525 -0.03706446
-0.0144519955 -0.023497516 -0.0021722612 -0.004343759 -0.012868421 -0.001651918 -0.03172288 -0.0043757665
0.016922722 -0.025440425 -0.025420628 -0.008141107 0.0064384663 0.027431892 0.0065490273 -0.011847996
0.029058358 -0.010703982 0.010870074 0.0036490199 -3.4347122e-05 -0.00610579 -0.037106834 0.040397715
-0.009571553 -0.0036149358 0.01745607 -0.014702598 0.0341932 0.0036869033 0.021197557 -0.009757427
-0.023399815 -0.02468477 0.015571157 -0.0036104517 0.02731265 -0.015967214 -0.0016430401 -0.003275142
0.010315173 0.01136937 0.023818819 0.017621381 -0.0019153284 0.002884038 -0.00621353 -0.023210818
0.019053517 -0.06466179 -0.016328674 0.027360609 -0.050246947 -0.019297315 -0.017298877 -0.011958417
0.016642805 -0.0042815404 0.057445977 0.026476827 0.00028811308 0.003036297 -0.00760794 -0.0030694415
0.0011796511 -0.0065987557 0.034940638 -0.023894953 -0.03686784 -0.0032568637 -0.016877115 -0.015908044
0.015889447 0.022107286 0.028702974 -0.021556275 -0.03342491 -0.00032752848 0.006929107 0.0030407812
-0.01936984 0.013710883 -0.012253934 0.0069671166 -0.004259627 -0.010398752 0.0019840053 0.011568501
0.014413623 -0.025001122 -0.0086207455 -0.009637548 0.01011525 0.006900096 -0.024043102 -0.012221129
-0.043786943 -0.029517109 0.006525092 -0.006715488 0.03767021 0.033351503 -0.022501545 -0.03211974
-0.005787637 -0.011669087 -0.029447509 0.024448039 0.0014063217 -0.007635905 -0.020730503 0.030806022
-0.008912538 0.014128775 -0.022904614 0.0032517852 -0.020925177 -0.009696556 0.016699083 0.0054173
0.0045009893 -0.008389225 -0.02084297 0.015851812 0.031726133 0.027094709 -0.015406307 -0.0046174694
0.013738694 0.0031561821 0.0023329507 -0.009053017 0.01471661 0.03599606 0.010852326 -0.02169584
0.0012480075 -0.019442754 0.029179642 0.007845119 0.012767784 0.014278052 0.006957142 -0.0070269313
-0.0072833155 -0.018971812 0.002798333 0.014220635 0.028454164 -0.0033829804 0.009866534 0.011111611
-0.003188194 -0.013697947 0.016917747 -0.01992143 0.007682988 -0.020654898 0.007659327 0.020080252
-0.017447831 -0.041343488 -0.020520277 0.037113454 -0.018008461 0.030880949 -0.016723214 -0.03873452
-0.01312836 0.009605956 0.0047675283 -0.034394175 0.017838528 0.014784319 -0.014844324 0.047027797
00000000: 0000 0000 0000 0000 20b2 cb39 cb00 183b
00000010: b0eb 9d3c 538e ecbb 9c73 323c e36d 03bc
00000020: e032 743b 1d45 d3bc eed3 d23b c54d 81bb
00000030: 98b4 733b 397c aebc b3ef f63b 5549 b8bc
00000040: 51c7 9b3c 96d8 133c 91bc 9f3c 49ab 43bb
00000050: becd f73b 2eeb 4a3d 9492 a8bc 73d6 333d
00000060: a0e5 9c3b 7850 f8bc fe60 5d3c 8ab2 b4bb
00000070: 8baa 353c 8ae6 cabc db2d f73c deb8 8d3c
00000080: b25a 9dbc 2c21 72bb 4f15 31bd 98ab d8bc
00000090: 79a0 cd3c e495 d93c 3053 f7bc 68c9 83bc
000000a0: 0b3b bcbc 94cb 15bb ae2c 67bc 72f5 a5bb
000000b0: 1792 b33c 0285 723b be47 c5bb fef1 25bc
000000c0: 7bb3 673c b0ba ff3c dd05 e73b 7b94 5e3b
000000d0: 2a8f 073d 628d e0bc d7c9 b2bb 7bdf 8a3c
000000e0: 772a 26bb 8566 703b 59c4 4f3c bb48 e63c
000000f0: 98c6 113c 2217 933b 5dc7 9d3c 0434 b2bc
00000100: 85b7 5c3b 26f7 76bb fdaa 26bb baeb 00bc
00000110: 821b 0bbd 48d0 8ebc 0f07 2b3a d897 993c
00000120: 7cf8 4dba a604 ff3a f6ef acbc 79fa a73b
00000130: 67d5 05bd f8c1 90bc 95ad 07bd e7d0 17bd
00000140: 10c8 6cbc dd7d c0bc 7f5c 0ebb 1756 8ebb
00000150: 12d6 52bc 2c85 d8ba daef 01bd 9762 8fbb
00000160: 85a1 8a3c 7068 d0bc ec3e d0bc 4762 05bc
00000170: c5f9 d23b d9b8 e03c 3999 d63b 191e 42bc
00000180: cb0b ee3c c15f 2fbc 6518 323c 6524 6f3b
00000190: f10f 10b8 1413 c8bb 56fd 17bd 1378 253d
000001a0: 01d2 1cbc 8fe8 6cbb 0800 8f3c 2ae3 70bc
000001b0: 2b0e 0c3d f99f 713b 80a6 ad3c 9ddd 1fbc
000001c0: f8b0 bfbc b737 cabc 2b1e 7f3c 549d 6cbb
000001d0: c7be df3c adcd 82bc 475b d7ba c4a3 56bb
000001e0: f900 293c 9846 3a3c af1f c33c b75a 903c
000001f0: c20b fbba 2102 3d3b de9a cbbb 9d24 bebc
00000200: 1f16 9c3c 676d 84bd b6c3 85bc 5b23 e03c
00000210: becf 4dbd 6715 9ebc 60b6 8dbc 3ced 43bc
00000220: 7e56 883c 2a4c 8cbb 794c 6b3d eee5 d83c
00000230: e20d 9739 9cfc 463b 074c f9bb af28 49bb
00000240: 869e 9a3a 603a d8bb ea1d 0f3d 59bf c3bc
00000250: bb02 17bd 1b71 55bb e041 8abc 9651 82bc
00000260: 962a 823c 571a b53c 8022 eb3c c996 b0bc
00000270: 8fe8 08bd 21b8 abb9 900d e33b d847 473b
00000280: 80ad 9ebc 9da3 603c b9c4 48bc 694c e43b
00000290: 5794 8bbb 875f 2abc 1606 023b cf89 3d3c
000002a0: 1e27 6c3c 27cf ccbc 073e 0dbc cee6 1dbc
000002b0: 6fba 253c 331a e23b 0af6 c4bc 213b 48bc
000002c0: f059 33bd ddcd f1bc 70d0 d53b 990d dcbb
000002d0: 144c 1a3d 969b 083d 2955 b8bc fd8f 03bd
000002e0: 38a6 bdbb b32f 3fbc e73b f1bc 4147 c83c
000002f0: 5354 b83a 9d36 fabb 04d3 a9bc e95c fc3c
00000300: e505 12bc 617c 673c 75a2 bbbc e71b 553b
00000310: 476b abbc 4ede 1ebc 84cc 883c 9b83 b13b
00000320: 097d 933b f672 09bc e0be aabc a9db 813c
00000330: 43f3 013d b9f5 dd3c bc6a 7cbc 244e 97bb
00000340: 4218 613c f3d7 4e3b 6be4 183b 1b53 14bc
00000350: f01d 713c 9b70 133d f4cd 313c 79bb b1bc
00000360: 2f94 a33a 6946 9fbc 250a ef3c d088 003c
00000370: f82f 513c 7eee 693c bdf8 e33b 2c42 e6bb
00000380: e1a8 eebb c66a 9bbc 3d64 373b abfd 683c
00000390: b518 e93c feb4 5dbb 3ea7 213c 790d 363c
000003a0: 05f1 50bb 5b6d 60bc 1697 8a3c 4432 a3bc
000003b0: 93c1 fb3b 7634 a9bc 17fb fa3b 577f a43c
000003c0: c1ee 8ebc ca57 29bd 241a a8bc 4704 183d
000003d0: 7b86 93bc 0bfa fc3c 1fff 88bc 17a8 1ebd
000003e0: 5518 57bc 4d62 1d3c ed38 9c3b e8e0 0cbd
000003f0: 1b22 923c ee39 723c 9c35 73bc 38a0 403d

distilbert.embeddings.position_embeddings.weight f4 [512, 2]
0.0010823396 -0.013467584 0.0256269 -0.006607407 -0.010839822 0.024780883 0.032004997 0.023014667
-0.023394248 0.0155373085 0.010031292 -0.01443107 0.011160567 0.0041840565 -0.023355957 -0.023668658
-0.049639385 0.010252941 0.010475367 -0.0055622966 0.007321139 -0.00080800115 0.002277826 0.0037389176
0.02586839 -0.032683115 -0.003985077 -0.011943712 0.009853494 -0.03161699 -0.016405033 -0.0056249634
-0.008669046 -0.013797288 -0.013161536 -0.01312072 -0.00041674756 -0.033774983 -0.0048636035 0.0322342
0.016939027 0.016679846 -0.010421643 0.0027016646 -0.042567633 0.0055116145 0.022150123 -0.008924445
-0.04377369 0.010687562 0.019717008 -0.022154061 -0.0054528653 -0.0006942268 0.017285543 0.010275828
-0.019706976 -0.01127854 0.009617799 -0.0002829814 0.017607007 -0.023506898 0.0063841417 -0.014064705
-0.008044225 -0.019073112 -0.019830192 0.0009872597 0.019008212 -0.015917381 0.008862131 0.030885445
-0.028100183 -0.014905208 -0.01792037 0.0248782 0.032369006 0.033301108 0.00013029067 0.0069271144
0.025147624 0.036597744 0.0036109143 0.018088086 -0.014839092 -0.012640831 -0.02829322 0.013247941
0.02132599 0.006892603 0.015394864 0.011310255 0.0077938675 0.009020737 0.006920604 -0.007216026
0.020343374 0.016336778 0.0070452467 -0.022520194 -0.014983707 0.015683062 0.0009958091 -0.0073945406
0.0076070726 0.0114703905 0.03218278 -0.023489125 -0.021984808 0.053479232 0.0063126483 -0.018397344
-0.0062557394 -0.01125737 -0.01882496 -0.0120522 -0.014739848 -0.010703693 -0.0067772022 -0.027490193
-0.008039074 0.0051828776 -0.0068527367 -0.011108655 -0.008022923 -0.045224074 -0.018027646 -0.0035114842
-0.031034887 0.022363428 -0.0100608375 -0.0025788264 0.009758716 -0.0095658265 -0.020931346 0.012004723
-0.004750398 -0.018102832 -0.039689396 0.018712427 -0.0048805163 0.0035515411 0.012662038 0.019223187
-0.019722627 0.015266726 0.019152867 0.009133407 0.0302708 -0.003501955 0.0022580463 -0.027884467
-8.552662e-05 0.01060674 -0.010633466 0.008302345 -0.044280145 0.013163066 0.004507915 -0.011690762
0.016697342 0.009258159 0.0069857487 -0.058333315 0.0057838038 0.00064602843 -0.014266259 0.01372796
0.01804143 0.0327887 -0.0025670826 0.026011566 -0.009668627 0.0064401673 0.030631145 0.0013799471
0.004796949 0.0029933688 0.010188895 -0.031582333 -0.019919815 0.002981139 0.034197696 -0.0051718634
0.041607063 0.012568088 0.0007615693 -0.011423657 -0.0067476085 0.02186543 -0.0090497965 0.021342203
-0.029538393 0.020581508 0.011333785 0.005687131 0.003706352 -0.020482423 0.006460423 0.034642313
-0.018068891 0.02383504 0.002693378 -0.009546502 -0.009731324 0.011225049 0.001725142 -0.0042953356
-0.0013746127 0.006901081 0.006417292 0.00413729 0.060445275 0.026901811 -0.033191845 0.0011177758
-0.035751905 -0.015910532 -0.0031930022 -0.004137895 -0.010841669 0.008862928 -0.015525771 -0.0038006743
-0.0127077885 -0.012177834 0.00033678295 0.0011698075 0.012985666 -0.007347221 -0.0051853084 -0.014742465
0.011381936 -0.007972608 -0.016177185 -0.0053111142 -0.006406329 0.031025488 -0.018155353 0.019472422
0.011780685 -0.0140844695 -0.014974085 -0.0010974705 0.0077573876 -0.020654434 0.0055066827 0.017673414
-0.0054669413 0.014620272 -0.027789079 -0.003037239 0.013591435 -0.01407278 0.011166361 0.0042800424
00000000: 4add 8d3a 24a7 5cbc 81ef d13c f282 d8bb
00000010: 8299 31bc 4701 cb3c ac17 033d 4189 bc3c
00000020: 4ba5 bfbc 3290 7e3c 4a5a 243c 4b70 6cbc
00000030: d0da 363c 691a 893b fe54 bfbc c6e4 c1bc
00000040: ab52 4bbd f4fb 273c e0a0 2b3c ed43 b6bb
00000050: 2ae6 ef3b 0ad0 53ba 9447 153b a108 753b
00000060: f2e9 d33c bbde 05bd 4095 82bb 8faf 43bc
00000070: 8d70 213c d180 01bd d963 86bc 9d51 b8bb
00000080: 9d08 0ebc 050e 62bc 7ca3 57bc 4af8 56bc
00000090: e97e dab9 a357 0abd dd5e 9fbb 0208 043d
000000a0: b7c3 8a3c 2ca4 883c 8abf 2abc 690e 313b
000000b0: 665b 2ebd c69a b43b 2d74 b53c d637 12bc
000000c0: 0a4c 33bd e21a 2f3c 9085 a13c 6f7c b5bc
000000d0: f3ad b2bb c6fc 35ba 699a 8d3c f25b 283c
000000e0: 8670 a1bc a0c9 38bc f993 1d3c 1f5d 94b9
000000f0: 923c 903c 8a91 c0bc 1032 d13b a66f 66bc
00000100: edcb 03bc 373f 9cbc ed72 a2bc f066 813a
00000110: 1cb7 9b3c 2b65 82bc 7932 113c 7903 fd3c
00000120: 5b32 e6bc f934 74bc bdcd 92bc 5ecd cb3c
00000130: 5d95 043d be66 083d a39e 0839 d9fc e23b
00000140: 6402 ce3c 84e7 153d 17a5 6c3b 772d 943c
00000150: aa1f 73bc 7d1b 4fbc 2fc7 e7bc e40d 593c
00000160: d8b3 ae3c 58db e13b bd3a 7c3c a64e 393c
00000170: b363 ff3b b7cb 133c 3cc6 e23b 6a74 ecbb
00000180: 26a7 a63c b5d4 853c d0db e63b 457c b8bc
00000190: 397e 75bc c479 803c cf85 823a e74d f2bb
000001a0: c044 f93b 4eee 3b3c 17d2 033d 446c c0bc
000001b0: 7c19 b4bc 0a0d 5b3d 55da ce3b 07b6 96bc
000001c0: f2fc ccbb d570 38bc cd36 9abc 9776 45bc
000001d0: 677f 71bc 8b5e 2fbc 4b13 debb 1d33 e1bc
000001e0: 52b6 03bc 21d5 a93b ec8c e0bb 1301 36bc
000001f0: 9472 03bc e13c 39bd b7ae 93bc ee20 66bb
00000200: e03c febc 8233 b73c 36d6 24bc 8701 29bb
00000210: 06e3 1f3c fcb9 1cbc 3778 abbc 75af 443c
00000220: 3aa9 9bbb 644c 94bc 5991 22bd ce4a 993c
00000230: bdec 9fbb f9c0 683b 7074 4f3c f279 9d3c
00000240: 5991 a1bc 4a21 7a3c 79e6 9c3c 49a4 153c
00000250: 78fa f73c 0e81 65bb bbfb 133b f76d e4bc
00000260: c15c b3b8 e4c7 2d3c fd37 2ebc 8f06 083c
00000270: 195f 35bd e6a9 573c 22b7 933b 9c8a 3fbc
00000280: ddc8 883c 89af 173c b5e8 e43b eaee 6ebd
00000290: 1086 bd3b 3c5a 293a 07bd 69bc 3deb 603c
000002a0: 9fcb 933c 724d 063d 803c 28bb 3516 d53c
000002b0: 2969 1ebc 0a08 d33b 2bee fa3c 57df b43a
000002c0: ba2f 9d3b 652c 443b 53ef 263c 7a5c 01bd
000002d0: e12e a3bc 375f 433b e212 0c3d bc78 a9bb
000002e0: 2b6c 2a3d 62ea 4d3c 0da4 473a 4a2a 3bbc
000002f0: 0b1b ddbb 211f b33c 9945 14bc d8d5 ae3c
00000300: 80fa f1bc 8d9a a83c 57b1 393c 1d5b ba3b
00000310: 45e6 723b c1ca a7bc f5b1 d33b 19e5 0d3d
00000320: 3605 94bc b441 c33c 6283 303b ee68 1cbc
00000330: 2270 1fbc 45e9 373c 291e e23a e3bf 8cbb
00000340: 592c b4ba 7722 e23b 2648 d23b 1b92 873b
00000350: 7795 773d 3061 dc3c 2cf4 07bd 5582 923a
00000360: 9770 12bd ce56 82bc b041 51bb 2e97 87bb
00000370: 41a1 31bc d035 113c ce5f 7ebc bc14 79bb
00000380: 5434 50bc 8a85 47bc 3e92 b039 3a54 993a
00000390: d5c1 543c f5c0 f0bb 85e9 a9bb 618a 71bc
000003a0: 4d7b 3a3c 8b9f 02bc 0486 84bc db08 aebb
000003b0: 2fec d1bb 2a29 fe3c 89ba 94bc a184 9f3c
000003c0: c603 413c 8cc2 66bc dd55 75bc 00d9 8fba
000003d0: af31 fe3b 7d33 a9bc 6771 b43b d6c7 903c
000003e0: 0724 b3bb de89 6f3c eca5 e3bc 6a0c 47bb
000003f0: 9cae 5e3c 8491 66bc 1df3 363c 993f 8c3b

distilbert.embeddings.LayerNorm.weight f4 [2]
1.0 1.0
00000000: 0000 803f 0000 803f

distilbert.embeddings.LayerNorm.bias f4 [2]
0.0 0.0
00000000: 0000 0000 0000 0000

distilbert.transformer.layer.0.attention.q_lin.bias f4 [2]
0.0 0.0
00000000: 0000 0000 0000 0000

distilbert.transformer.layer.0.attention.k_lin.bias f4 [2]
0.0 0.0
00000000: 0000 0000 0000 0000

distilbert.transformer.layer.0.attention.v_lin.bias f4 [2]
0.0 0.0
00000000: 0000 0000 0000 0000

distilbert.transformer.layer.0.attention.out_lin.bias f4 [2]
0.0 0.0
00000000: 0000 0000 0000 0000

distilbert.transformer.layer.0.sa_layer_norm.weight f4 [2]
1.0 1.0
00000000: 0000 803f 0000 803f

distilbert.transformer.layer.0.sa_layer_norm.bias f4 [2]
0.0 0.0
00000000: 0000 0000 0000 0000

distilbert.transformer.layer.0.ffn.lin1.bias f4 [2]
0.0 0.0
00000000: 0000 0000 0000 0000

distilbert.transformer.layer.0.ffn.lin2.bias f4 [2]
0.0 0.0
00000000: 0000 0000 0000 0000

distilbert.transformer.layer.0.output_layer_norm.weight f4 [2]
1.0 1.0
00000000: 0000 803f 0000 803f

distilbert.transformer.layer.0.output_layer_norm.bias f4 [2]
0.0 0.0
00000000: 0000 0000 0000 0000

distilbert.transformer.layer.1.attention.q_lin.bias f4 [2]
0.0 0.0
00000000: 0000 0000 0000 0000

distilbert.transformer.layer.1.attention.k_lin.bias f4 [2]
0.0 0.0
00000000: 0000 0000 0000 0000

distilbert.transformer.layer.1.attention.v_lin.bias f4 [2]
0.0 0.0
00000000: 0000 0000 0000 0000

distilbert.transformer.layer.1.attention.out_lin.bias f4 [2]
0.0 0.0
00000000: 0000 0000 0000 0000

distilbert.transformer.layer.1.sa_layer_norm.weight f4 [2]
1.0 1.0
00000000: 0000 803f 0000 803f

distilbert.transformer.layer.1.sa_layer_norm.bias f4 [2]
0.0 0.0
00000000: 0000 0000 0000 0000

distilbert.transformer.layer.1.ffn.lin1.bias f4 [2]
0.0 0.0
00000000: 0000 0000 0000 0000

distilbert.transformer.layer.1.ffn.lin2.bias f4 [2]
0.0 0.0
00000000: 0000 0000 0000 0000

distilbert.transformer.layer.1.output_layer_norm.weight f4 [2]
1.0 1.0
00000000: 0000 803f 0000 803f

distilbert.transformer.layer.1.output_layer_norm.bias f4 [2]
0.0 0.0
00000000: 0000 0000 0000 0000

pre_classifier.weight f4 [2, 2]
-0.021776158 -0.0113554355 0.019938715 -0.028207
00000000: ea63 b2bc 260c 3abc 8456 a33c 5e12 e7bc

pre_classifier.bias f4 [2]
0.0 0.0
00000000: 0000 0000 0000 0000

classifier.weight f4 [2, 2]
0.030736357 0.006280034 -0.019209709 0.041557968
00000000: d0ca fb3c bec8 cd3b ae5d 9dbc b038 2a3d

classifier.bias f4 [2]
0.0 0.0
00000000: 0000 0000 0000 0000

302 f4 [2, 2]
-0.013414578 -0.051621124 0.012515054 -0.009994713
00000000: d1c8 5bbc ac70 53bd f10b 4d3c ddc0 23bc

306 f4 [2, 2]
0.02951457 0.00888149 -0.021663567 -0.024967529
00000000: 8ac8 f13c ab83 113c cb77 b1bc b488 ccbc

310 f4 [2, 2]
0.018485645 -0.03674495 -0.029045403 0.029545553
00000000: 356f 973c df81 16bd a0f0 edbc 8409 f23c

318 f4 [2, 2]
-0.0034930224 -0.0010704898 -0.019218072 0.014248982
00000000: 31eb 64bb ad4f 8cba 386f 9dbc 9074 693c

319 f4 [2, 2]
-0.007883577 -0.0016016426 0.003708664 0.0012822928
00000000: 1e2a 01bc 35ee d1ba 0f0d 733b 9b12 a83a

320 f4 [2, 2]
0.021503225 -0.030199096 0.018449744 -0.027876658
00000000: 8827 b03c 1864 f7bc eb23 973c 975d e4bc

321 f4 [2, 2]
0.028044658 0.005326348 -0.030290026 0.017904324
00000000: e9bd e53c a588 ae3b ca22 f8bc 17ac 923c

325 f4 [2, 2]
-0.012472284 0.004439748 -0.00072288525 0.009872931
00000000: 8d58 4cbc 4e7b 913b 0280 3dba 13c2 213c

329 f4 [2, 2]
0.0067382557 -0.013061242 -0.017257754 -0.014249207
00000000: 96cc dc3b d2fe 55bc 2260 8dbc 8275 69bc

337 f4 [2, 2]
0.006140932 -0.014956845 -0.015566115 -0.0024153448
00000000: df39 c93b 8e0d 75bc 0509 7fbc c34a 1ebb

338 f4 [2, 2]
-0.0022934673 0.0155907655 -0.022148047 0.0048577557
00000000: ff4d 16bb 6970 7f3c d26f b5bc cf2d 9f3b

339 f4 [2, 2]
0.028079642 0.006701989 -0.028011013 0.029420393
00000000: 4707 e63c 5c9c db3b 5a77 e5bc 0903 f13c
